lumoos.tflite (tflite, 206964 bytes, 9 tensors)

arith.constant f4 [1, 32]
000000 21 a7 ae be 96 50 86 bd 8e 00 cc 3d a6 5e b5 3d
       -0.34111884 -0.06558339 0.09961043 0.088559434
000010 bb 67 ac be 2b ca 05 3e 1f e1 a9 be 37 44 09 3e
       -0.3367289 0.13065402 -0.33179566 0.13404928
000020 b9 9a b5 3d 8f 7c 46 3d 10 56 c0 bb 14 37 f7 bc
       0.08867402 0.048458632 -0.0058696344 -0.03017763
000030 99 65 ad be 6f 9d b4 be 25 95 86 bd 4b b1 98 3a
       -0.33866575 -0.35276362 -0.06571416 0.0011649517
000040 95 51 e7 3c 26 4b 02 bd 22 b8 a9 be fb 33 b1 be
       0.028237144 -0.03180995 -0.33148295 -0.3460997
000050 dc 08 96 3d 44 de f0 bc 45 2c 17 3e fb 4f f8 3d
       0.073259085 -0.02940286 0.14762981 0.1212463
000060 62 83 7f 3d a0 96 76 3d a5 71 ee 3b 4a 8e b8 be
       0.062381156 0.06020224 0.007276731 -0.36046058
000070 1a b6 7b 3d 91 9c 99 3d ed 3f 65 3e a6 9e 70 3e
       0.061452962 0.07500566 0.22387667 0.2349802

arith.constant1 f4 [32, 32]
000000 40 8d 02 3e d9 6a cb 3d 5b 9a 06 3e c2 7e 52 3d
       0.12749195 0.09932489 0.1314482 0.051390417
000010 af ec 72 bd 5e 03 41 bd b8 91 e8 3d cc 38 97 bd
       -0.05930775 -0.04712235 0.11355919 -0.0738388
000020 5b d0 ca 3c a6 b9 5c 3d 7a 06 32 3e 11 1b 99 bd
       0.024757555 0.053887986 0.17385283 -0.07475866
000030 11 ea 9a 3c 4b 9d 3e 3c 99 38 93 3d 57 7f bf 3d
       0.01891044 0.011634181 0.071885295 0.0935046
000040 e9 d6 24 bd a5 7a 26 3d 3a 83 72 3d 4c de 36 be
       -0.040244017 0.040644307 0.05920718 -0.17858237
000050 d3 31 a7 3d 47 5c c7 bd 7b a0 27 be ca 26 d7 bd
       0.081638 -0.097343974 -0.16369812 -0.10505445
000060 5b 2f bb bd ae 30 78 3d 0b 42 31 be 52 f3 4d 3e
       -0.09139892 0.0605933 -0.1731035 0.2011235
000070 b7 e9 26 3e cd 2d 00 3c b2 e7 cf 3c b4 38 b3 bc
       0.16300093 0.00782342 0.025379036 -0.021877624
000080 56 ff 20 3e ea f0 7b 3d 48 a4 dc 3c 40 6b 22 bc
       0.15722403 0.06150905 0.026933804 -0.009913266
000090 1d 50 9a 39 00 dd bb 3c 30 7c 08 bd cd 5d 52 3c
       0.00029432858 0.02293253 -0.03332156 0.012839747
0000a0 dd 56 a4 3d 1e 1b ae 3d 73 b4 90 3d 3c c1 bb bc
       0.0802438 0.08501266 0.07065668 -0.02291929
0000b0 19 82 28 3d 4b 38 5f ba 5b a2 14 be 54 89 63 bd
       0.041139696 -0.0008515163 -0.14515059 -0.05555089
0000c0 24 b6 a7 bd 2f 28 3e 3d 77 f6 23 be 71 bb 20 be
       -0.081890374 0.04642504 -0.16011988 -0.15696503
0000d0 12 a1 21 3d 1a 8a 0a 3e b7 6e 41 bd 43 7b 17 3d
       0.03946025 0.13529244 -0.047224727 0.036982786
0000e0 e6 aa ff bd 7f 94 6e 3b 99 ac eb bd a7 25 b4 bc
       -0.12483768 0.0036404429 -0.1150753 -0.02199061
0000f0 f6 4c 2f 3e 8f 8c b8 3d 5a 34 59 bc fa 9a 04 be
       0.17119202 0.090111844 -0.0132571105 -0.12949744
000100 eb ee 21 3e 11 12 21 be 46 02 66 bd 1b 7d 2a be
       0.15813796 -0.15729548 -0.056154512 -0.16649286
000110 e7 9b 03 3c bd 4f 12 3d 54 e4 23 3d 8a c6 af b9
       0.0080327755 0.035720576 0.040012673 -0.00033526524
000120 80 6f 70 bd 69 cb f7 bd d1 17 6a 3d 24 93 b1 3d
       -0.058700085 -0.12099344 0.05715162 0.08670643
000130 c8 39 c2 3d b7 9a 1f be 0e 74 1b bd d2 26 00 3e
       0.09483677 -0.15586363 -0.037952475 0.12514809
000140 c4 c9 02 bd 67 b7 53 3b 3f 3c 96 3d 82 c1 45 3d
       -0.0319307 0.0032305361 0.0733571 0.048280247
000150 bd 4e a2 bd e2 a3 ea bd ff 8b e5 3c 97 15 a4 bd
       -0.079251744 -0.114570394 0.028020857 -0.080119304
000160 dd 4a 8f 3d 8d a8 b6 bd 39 79 5f 3e c2 48 c3 3d
       0.06996701 -0.08918867 0.21823587 0.09535362
000170 45 0d 17 be 67 1d 2c 3e 80 3b 21 bd 17 1a 76 3d
       -0.14751156 0.16808091 -0.039363384 0.060083475
000180 9e 3c 01 be df b3 76 3d b8 75 dd ba e8 81 eb bd
       -0.1262078 0.060230132 -0.0016896045 -0.11499387
000190 ec b9 ba bd 75 15 21 be f7 b8 fd bd 8b 66 fe 3d
       -0.09117493 -0.15730841 -0.12388795 0.12421902
0001a0 ec ea 1d bc 6d ea 1c 3e 55 91 bd bc 4a 1d 11 bd
       -0.009638529 0.15323801 -0.023140589 -0.035428323
0001b0 79 89 14 be 65 d4 1c 3c eb 6e 93 3d 78 81 6c 3d
       -0.14505567 0.009572123 0.0719889 0.05774066
0001c0 85 19 0a 3e 15 79 a4 3d e3 ca fe 3d d4 6f 0b be
       0.13486297 0.08030907 0.12441041 -0.13616878
0001d0 e4 11 da bd 59 ac b9 3d d6 05 03 be 8d 62 08 3e
       -0.106479436 0.09066076 -0.12795195 0.13318844
0001e0 2d 41 1d be 31 7d 14 3e 49 3a cb 3d d8 03 8e bd
       -0.15356894 0.14500882 0.099232264 -0.06934327
0001f0 6b 05 19 be ce 37 0d bd 91 09 7b 3d 93 f7 95 bd
       -0.14943473 -0.034477048 0.06128842 -0.07322612
000200 47 9c 0a 3e 19 3d 07 3e cf 22 2f be 93 15 18 3e
       0.13536178 0.132069 -0.17103122 0.1485198
000210 69 89 18 3e 4d f0 2f be c8 8d f2 3d b9 2f b0 3b
       0.14896168 -0.17181511 0.11843449 0.0053767827
000220 81 ed 1e be d9 c5 da bd bf b1 fe bd a3 bc c3 bc
       -0.15520288 -0.10682268 -0.12436246 -0.02389366
000230 2a d7 8e bd 9e 9e 5d 3d e9 27 09 3e c6 ca 38 3e
       -0.06974633 0.054106347 0.13394131 0.18046102
000240 25 44 b0 bd 35 0f 8c 3c 78 20 35 be 66 ed 08 3e
       -0.086067475 0.017097095 -0.17688167 0.1337181
000250 ce 89 a3 3d b1 3a 86 3d 00 48 34 3e d3 82 e5 3b
       0.079852685 0.06554163 0.17605591 0.007004121
000260 3d bf ff 3d 10 3b 43 3e 52 9b 1a 3e 4b b9 97 bd
       0.12487648 0.190655 0.15098312 -0.07408389
000270 81 09 8c 3d e2 a9 4e bc 7b a5 8e 3c 51 1a 25 be
       0.0683775 -0.012613745 0.017412892 -0.1612332
000280 72 fd a9 3c 26 0b 34 bc f5 83 df 3d 14 fc 93 3d
       0.020750735 -0.010988986 0.10913841 0.072258145
000290 e0 b2 64 bd b2 e2 9d 3d 6c a8 a5 bc 5b 7d 21 3e
       -0.05583465 0.07709254 -0.020221911 0.15770476
0002a0 27 36 70 bd 1f 97 2b 3e f8 dc 1d be 5a 84 69 3d
       -0.058645394 0.16756867 -0.15416324 0.057010986
0002b0 d9 67 9a 3a 86 8a 0c be 1a 07 1f be a9 a2 2c be
       0.0011780217 -0.13724717 -0.15530053 -0.16858925
0002c0 5c 07 8a 3d 1c 4d b9 bd b1 4b 83 bd c2 ee 3b 3e
       0.06739685 -0.090479106 -0.06410921 0.18352798
0002d0 08 c1 9e 3d f3 e0 df 3c 7b ba 4b bd 05 0b 2f 3d
       0.077516615 0.027328944 -0.04973839 0.04273512
0002e0 bc f4 4e bd 8e 81 0f 3d 9c 84 dd bc 96 b9 cd 3d
       -0.050526366 0.035035662 -0.027040772 0.10045163
0002f0 8b e4 89 3d 82 f7 99 bd 41 50 58 bd 64 f3 bb bd
       0.06733044 -0.075179115 -0.05281091 -0.091772825
000300 9c f1 d3 3b 9b a9 f5 bd a5 34 4c 3b 3e aa 5e bd
       0.006468011 -0.1199524 0.0031159308 -0.054361574
000310 50 ec 1f bc 74 d0 8c bd 70 12 ec 3d bd b5 37 3d
       -0.009760931 -0.06875697 0.11526954 0.044851054
000320 44 5c 98 bd 80 61 af 3d a4 66 0c 3e 1e 77 c0 3d
       -0.07439473 0.085635185 0.1371103 0.0939772
000330 63 7d 17 bd 62 0d 53 bd 51 8e 9d bd 8c 4a 2b 3e
       -0.036984812 -0.051526435 -0.0769316 0.16727656
000340 05 6d e4 bd 66 d2 da bd d2 4f 4a be 29 a1 e6 bd
       -0.11153606 -0.106846616 -0.19757012 -0.112612076
000350 f5 b6 ef 3c 3a c5 d7 3d cc ee 2d 3e eb 6b f8 bd
       0.029262045 0.10535665 0.16985625 -0.12129959
000360 48 2f 3d 3e a9 cb 22 3e 51 87 1d be c1 93 b5 3d
       0.18475068 0.15898003 -0.1538365 0.088660724
000370 c2 67 83 bc 93 ea 5f 3d 1f e9 97 bd c3 05 1d 3e
       -0.016040687 0.054667067 -0.07417511 0.15334229
000380 ee f0 17 3e 20 4f 13 3d cc 42 e0 bd 5c ad c6 bc
       0.14838001 0.03596413 -0.109502405 -0.024252586
000390 2f 33 f4 bd 57 92 00 be f8 7c 02 3e 61 73 d9 bc
       -0.11923825 -0.12555824 0.12742984 -0.026544275
0003a0 ed 1d f3 3d 43 31 48 3e f5 12 02 bd 38 02 10 be
       0.11870942 0.19550042 -0.03175636 -0.14063346
0003b0 8a 63 fb bd 5f 26 8b bd 15 a6 20 3e 1c d0 84 3c
       -0.12274845 -0.06794428 0.15688355 0.016212516
0003c0 ed 62 44 3e 56 00 f7 bd 30 09 a4 3d 47 d4 93 3c
       0.19178362 -0.12060611 0.08009565 0.018045558
0003d0 9b ac cb 3d fb d2 dc bb 8b eb 36 3c e1 e9 b2 3d
       0.09945031 -0.006739018 0.011164556 0.08736015
0003e0 7e 4e 10 be 5a d7 1a be b3 32 e9 bd 84 76 0d bc
       -0.14092442 -0.15121213 -0.11386623 -0.008634213
0003f0 b6 af fe bd 2f f8 2a bb 59 9b bf bd d4 9b 2b be
       -0.12435858 -0.002608787 -0.09355802 -0.16758662

arith.constant2 f4 [32, 1536]
000000 60 29 7b bc 11 4a 80 ba cc 36 09 3d 2a 07 89 3c
       -0.015329689 -0.0009787699 0.033499524 0.016727049
000010 bb ed 6d bc c6 3b d5 b9 0c ea 04 3c b1 48 87 bc
       -0.014522011 -0.0004067106 0.008112442 -0.016514154
000020 98 f4 61 bc 01 ed 92 3b ea f2 34 bc 21 ef 99 bc
       -0.013791226 0.0044838195 -0.011044243 -0.018790783
000030 97 a8 66 3c 58 75 aa bc 78 02 8c bc 95 e3 a1 3c
       0.014078281 -0.020807907 -0.017091021 0.01976184
000040 5d 35 d7 bb e9 6b 61 3b 7a 41 23 3c a4 90 96 3c
       -0.0065676407 0.0034396595 0.009964341 0.018379517
000050 b8 ee 44 3b 7e 48 85 3a cb ca 44 3c 19 cf 8d 3c
       0.0030049514 0.0010168699 0.01201124 0.017310666
000060 45 19 34 bb 74 8b 22 3c 95 0a cc 3c e9 ea b4 38
       -0.0027480882 0.0099209435 0.02490739 8.626824e-05
000070 a5 0d 3f 3c 10 a6 ae 3c 18 ba 81 3c a9 2e 99 bb
       0.011660968 0.02131942 0.015835807 -0.004674752
000080 cc de 06 bb ff ce 3c 3b 46 cc af 3c 6a e6 24 3b
       -0.0020579575 0.0028809903 0.02145971 0.0025161752
000090 6e 97 44 3c 74 3c 4c bb 1b 6e cc 3b d2 7e 4d 3c
       0.011998994 -0.0031163963 0.0062387115 0.012542443
0000a0 b4 4d 9b 3c f1 8a 52 bb 01 93 06 3c 1d c5 a4 3c
       0.01895795 -0.0032126273 0.008213759 0.020113522
0000b0 02 8a 78 bc 4b c7 14 3c 82 36 cc bc dc ca 89 3c
       -0.015169622 0.009080718 -0.024928335 0.016820364
0000c0 8f 1e f9 bc 87 d9 20 3d 96 c6 79 39 43 ed ae b9
       -0.03041008 0.03926995 0.0002382047 -0.0003336464
0000d0 55 82 8a 3c fb 9e 28 3c 5e 64 9a bc 4a 2f 87 3c
       0.01690785 0.01029181 -0.018846687 0.016502041
0000e0 6a e5 46 3c ce b9 82 bc ba 0d 51 bc 50 2d 9e ba
       0.0121396575 -0.01595774 -0.01275962 -0.0012067948
0000f0 fc 1d f5 bc 20 5d 83 3c 5c 00 33 3c bd 1c 2d 3c
       -0.029921524 0.016035616 0.010925379 0.010565934
000100 6d 2d b3 3c c5 65 2b 3c d8 83 12 3d cd 62 22 3c
       0.021872247 0.0104612755 0.035770267 0.009911251
000110 54 ea 37 3c 20 b3 2b 3b 8b 2a 1d bc 6a b5 c9 bc
       0.011225302 0.0026199296 -0.009592663 -0.024622638
000120 6f c0 4f 3c 84 4d b8 3c e4 f2 d7 bc 77 5a 99 ba
       0.012680157 0.0224979 -0.026360936 -0.0011699934
000130 57 17 2b bc 4a 59 a0 bc d4 2f 46 3c e0 90 7a bb
       -0.010442576 -0.019573826 0.012096364 -0.0038233325
000140 e2 19 f4 3c 25 5d 94 bc 62 c8 08 bc ec dc 82 bc
       0.029797498 -0.018110821 -0.008348556 -0.015974484
000150 76 bd a0 3c 6c 54 f0 ba 6e 75 b5 bc bb fe 1a 3a
       0.019621592 -0.0018335707 -0.022150721 0.00059125916
000160 4f 6c 00 3c 76 17 b8 3b d6 8e ae bb 3a c4 93 bc
       0.007838323 0.005618031 -0.005327086 -0.018037904
000170 b6 1d 4a bb 8c 65 b9 bb 87 a0 6e 3c e2 2e 67 3b
       -0.0030840463 -0.0056578573 0.01456464 0.0035275747
000180 e6 c3 67 bc 5e b4 f5 bb f5 86 d0 ba a6 b3 d6 bc
       -0.014145827 -0.007498308 -0.0015909361 -0.02620871
000190 cb 4e b9 3c ae 14 c0 bc 39 a0 13 bc 8e d9 97 3b
       0.02262058 -0.02344736 -0.009010368 0.004634089
0001a0 dc c7 a0 bc 84 28 54 bc 92 f6 d0 3c e6 f6 8f 3b
       -0.01962655 -0.012949113 0.025508199 0.0043934463
0001b0 b4 c9 f8 bc 39 5b 98 3b b0 ea da 3c da f7 f1 3b
       -0.030369617 0.0046495465 0.026723236 0.0073842825
0001c0 44 c8 68 bc 27 26 53 bb 0f c4 c6 3c 44 1a 00 bc
       -0.014207903 -0.0032218785 0.02426341 -0.007818762
0001d0 ec 03 d2 39 d6 c6 3b bc 26 ad f0 3c 63 0d 59 3c
       0.00040057243 -0.01146098 0.029379439 0.013247821
0001e0 40 e8 d7 3c bd 85 83 bc 5d f6 93 3c 50 66 c6 bb
       0.026355863 -0.016054982 0.018061811 -0.006054677
0001f0 7c d9 a2 3c 0d 81 06 3c 52 5a 33 3c f2 34 b3 bb
       0.019879095 0.008209479 0.010946827 -0.005468958
000200 19 28 85 3a ff 32 66 bb 79 3b 9e bc fe ea 38 bc
       0.0010159045 -0.003512561 -0.019315468 -0.011286495
000210 2d 81 b5 3a 05 df 83 3c d0 c1 d7 3b a4 40 07 bc
       0.0013847701 0.016097555 0.0065843835 -0.008255158
000220 ad 7a 76 3b 29 48 8d 3c e0 07 0d bc db 7c 3a 3b
       0.0037609742 0.017246323 -0.008607835 0.0028455767
000230 fc f1 be 3b bf b4 df 3b 9a 39 9a 3c bf f5 06 3c
       0.0058271866 0.0068269665 0.018826295 0.008237301
000240 a8 ff 4f 3c 89 80 c0 3c a2 77 72 ba 79 f6 78 3c
       0.012695231 0.02349879 -0.0009249394 0.015195482
000250 88 e7 b3 bc ea 7e 13 3d af f5 11 bc 9f c1 37 3b
       -0.021960989 0.036009707 -0.008908673 0.002803899
000260 82 8e 91 ba 0f 4e 88 bc c1 9a bb 3c 0a 9a a4 bc
       -0.0011105093 -0.016638784 0.02290094 -0.020092983
000270 18 31 ed ba 60 99 d3 3c 65 e1 92 bc d6 d9 58 bc
       -0.0018096296 0.02582997 -0.017929742 -0.01323553
000280 4e d3 26 3c 2d 7b 40 3b 9f a2 02 bb 75 2f c1 3c
       0.010182215 0.0029370293 -0.0019933356 0.0235822
000290 18 51 07 3c 0c 10 29 3c cd 41 73 3b 65 c6 e7 3b
       0.00825908 0.010318767 0.0037118078 0.007073211
0002a0 11 54 0c 3d 80 7c 84 bc 7e 98 3a bb d6 33 e7 bc
       0.03425986 -0.016172647 -0.002847224 -0.02822296
0002b0 f2 aa 04 3d 59 7c 58 bc bf 4e c4 3c dc 78 81 3c
       0.03238959 -0.013213241 0.02396333 0.0158047
0002c0 15 8b 27 3b c2 75 ae bc bb 72 ab 3a f5 10 82 ba
       0.0025565077 -0.021296386 0.0013080457 -0.0009923266
0002d0 20 8f 96 3b 72 6f 07 3c ca 3c 3d bc c8 9e 33 bb
       0.0045946985 0.008266317 -0.011550138 -0.0027407873
0002e0 01 d0 cc bb c0 52 a2 bc 67 4a c4 3c fd d7 b4 3b
       -0.006250382 -0.019814849 0.023961259 0.005518912
0002f0 7c bd 9a 3c 5b b6 d9 3c b6 77 4b 3c 3c bc bf bc
       0.018889181 0.026576212 0.012418678 -0.023405187
000300 b6 f8 aa bb 7c c1 a0 3c 1e 41 27 bc 41 5b ce bc
       -0.005217637 0.01962351 -0.010208396 -0.025189998
000310 66 4b 51 3c ac 1b 2e 3c 3e 85 88 3c 47 45 9c bc
       0.012774324 0.010626715 0.016665097 -0.019076003
000320 cf 80 65 3b c6 98 7a bc ee cb 9e bc f7 01 06 3b
       0.0035019403 -0.015295213 -0.01938435 0.0020447948
000330 5e 86 a4 3c 5b d0 87 3c 2f 63 a8 bc d8 80 9c 3c
       0.020083603 0.016578844 -0.020555107 0.019104406
000340 3f 87 54 bc 1a 56 a6 3b 6a 8d 86 bc d3 9c 28 bc
       -0.012971698 0.005076182 -0.016424853 -0.010291296
000350 88 0f 51 bb 84 24 b7 3b 05 01 c9 3c ae ab a0 3c
       -0.0031900126 0.00558907 0.024536619 0.019613113
000360 e2 a5 8b 3c 4c 47 c6 bb 6f eb 5c 3c 9c 4f 1f 3c
       0.017046873 -0.0060509797 0.013483866 0.00972357
000370 04 75 fe 3b c0 04 b4 bc 71 81 76 bb 26 5b bd bc
       0.007765414 -0.021974921 -0.0037613774 -0.023114752
000380 9d 66 0f 3b 5f 3b cb 3c f7 0b 9b ba 02 20 2f bc
       0.002188123 0.024808584 -0.0011829127 -0.010688784
000390 cb a2 86 3b 18 4e 10 bb 87 30 75 bc 65 4a 7f bb
       0.004108762 -0.0022019204 -0.014965183 -0.0038954255
0003a0 51 54 a8 3c 99 2a 46 bc e1 47 cf bc 16 f0 0f bb
       0.020548018 -0.012095117 -0.02530283 -0.002196317
0003b0 9f 32 cb bc a9 9c a0 3b 64 f3 87 bc d2 eb 7d 3c
       -0.024804411 0.004901488 -0.01659555 0.0154981185
0003c0 d5 61 c9 bb dd 20 56 3a 46 20 8b bc 99 b4 84 bc
       -0.0061456957 0.0008168349 -0.016983163 -0.016199397
0003d0 3c af a0 3b 59 27 2a bc 26 92 79 bc 83 24 78 3b
       0.004903702 -0.010385358 -0.015232598 0.003786356
0003e0 63 83 bc 3c b8 ca 9a 3c 6e 1e cc 3c 9f 90 40 bb
       0.023011869 0.018895492 0.024916854 -0.0029383076
0003f0 32 da 88 3a 69 bc c7 3b a8 0a 92 bc 85 66 7d bc
       0.0010441004 0.0060954583 -0.017827347 -0.015466337

model_8/tf.__operators__.add/AddV2/y f4 [32]
000000 5d 23 40 3c 9c 2a 0c 3c 96 19 3e bc e0 88 ce 3c
       0.011727181 0.008555081 -0.01160278 0.025211751
000010 d7 93 5a bc 02 94 ac bc c8 f0 b3 3c 94 4c 95 3c
       -0.013340912 -0.02106667 0.0219654 0.018224992
000020 e6 c4 49 b9 8d ab a7 3c 2f 1d 56 bc 03 4c 6e 3c
       -0.00019242204 0.020467544 -0.013068481 0.01454449
000030 64 fe 95 bb 98 79 88 bc 88 ce 24 bb fd da 4d bb
       -0.004577445 -0.016659543 -0.0025147516 -0.0031411045
000040 b0 b3 5a bc ad aa 53 bc 7d 8e 98 3c 60 45 ee 3b
       -0.013348505 -0.01291911 0.018622631 0.0072714537
000050 b6 41 c7 3c 61 0d cc bc 36 dc 51 bc 51 da 89 3c
       0.024323326 -0.024908723 -0.01280885 0.016827734
000060 40 47 7a 3b ce e3 15 bc 0f 70 ac 3c 52 8d bf bb
       0.003818944 -0.009148551 0.021049527 -0.005845704
000070 82 48 83 3c 32 9c c8 bc 83 c6 46 bb 81 6d b8 bc
       0.016025785 -0.024488542 -0.0030330725 -0.022513153

model_8/tf.__operators__.add_1/AddV2/y f4 [32]
000000 b1 ff 70 3c 0a 69 2c 3e 2c 25 29 be bc 3f 56 3d
       0.014709399 0.16836944 -0.16518086 0.052306876
000010 0b 0d 2e be 59 aa b0 3d c6 7a 19 3e 69 4c 3e 3e
       -0.16997163 0.08626241 0.1498824 0.18583836
000020 41 92 1e 3d 8f 2f 4c bd 2c fb fb 3b d2 65 28 be
       0.038713697 -0.049850043 0.007689854 -0.16445091
000030 a0 a2 e2 3d 1f 22 26 3d 8a 9d 1c 3e 72 ff 3e be
       0.110661745 0.040559884 0.15294471 -0.18652132
000040 1b 60 8a 3d 27 d4 ca bd 95 62 2b 3e 4b 0d d8 bd
       0.06756612 -0.09903746 0.16736825 -0.105494104
000050 61 1e f2 bd 68 40 30 3e b2 64 a2 bd 26 b4 32 3e
       -0.118222006 0.17212069 -0.07929362 0.17451534
000060 64 52 82 bc 4b c9 3f be 65 09 a7 bd 3b bc ae 3d
       -0.015908428 -0.18729131 -0.08156089 0.08531996
000070 a9 eb e9 3c d3 e5 a0 bd 28 10 d6 3d 0e b2 fd bd
       0.028554754 -0.078563355 0.104523 -0.12387477

model_8/tf.math.add_2/Add/y f4 [1, 32]
000000 96 a8 1b bc d3 0f 95 3b 5b 94 0b 3d af a4 d2 3c
       -0.009500643 0.0045490055 0.03407703 0.025713293
000010 40 1b 44 3b 8a e2 31 3a 64 9e 06 3b 7f c5 11 3c
       0.0029923469 0.0006785771 0.0020541186 0.008897184
000020 a6 0b 46 3d c7 c8 49 3c 8f e7 09 3c f7 77 ea bb
       0.048350953 0.012315935 0.008417024 -0.007155414
000030 6e b6 09 3c 01 04 fc bb 05 fb 12 3c a2 70 9e b9
       0.008405311 -0.007690907 0.0089709805 -0.00030220026
000040 ec 4b 85 3c 22 db 1c 3b 3a d7 ed 3c e8 d2 60 3c
       0.016271554 0.0023934324 0.029033292 0.013722159
000050 b2 37 e8 3b dd 80 d7 3b 3e 5d ca bb 49 e0 06 bc
       0.0070867175 0.006576641 -0.006175666 -0.008232185
000060 8f 0c 55 3c 3c 3b c2 3c 66 2f 2c 3c b5 5a f7 3c
       0.0130034825 0.023709886 0.010509348 0.03019462
000070 c2 a5 ea bb 83 5a 7b bb e3 71 21 3b 0c 57 06 bc
       -0.007160873 -0.003835351 0.0024634532 -0.0081994645

model_8/tf.math.add_5/Add/y f4 [1, 32]
000000 4f 22 8a 3e e1 ae 49 bd 22 96 cb bc 60 4f e9 3c
       0.269793 -0.049239043 -0.024851862 0.028480232
000010 55 66 94 3e ec cf 07 3d c8 e1 8e 3e 52 d3 ad 3c
       0.28984323 0.033157274 0.27906632 0.02121893
000020 6e 68 7e 3d 39 75 ce 3b 77 d2 21 bc d3 c0 38 bd
       0.06211131 0.006300595 -0.009876839 -0.045105767
000030 6f 5a 99 3e 70 aa a2 3e 24 63 2f ba a6 f1 28 bc
       0.29951808 0.31770658 -0.00066904933 -0.01031152
000040 60 4a 34 3c fd 12 48 bc 0d 20 9a 3e 21 7c 89 3e
       0.0110040605 -0.012211558 0.30102578 0.26852515
000050 fe 44 26 3a b4 f0 44 bd 67 8e 52 3c f1 6a 19 3d
       0.0006342678 -0.048081115 0.012851334 0.037455503
000060 01 86 03 3c 8e 29 4a bb da 83 94 bb 9d 03 85 3e
       0.0080275545 -0.0030847522 -0.0045323195 0.2597932
000070 3d 3c c9 3c 29 83 49 3d dc 15 36 3c fb ac 37 3d
       0.024564857 0.04919735 0.01111361 0.0448427

model_8/tf.math.multiply_10/Mul/y f4 [1, 32]
000000 ea 83 7f 3f c9 33 80 3f 0b 51 81 3f 9d 18 81 3f
       0.9981066 1.0015804 1.0102857 1.0085636
000010 9e 6e 81 3f f9 e5 7f 3f 50 c6 7d 3f 0a e3 81 3f
       1.0111883 0.99960285 0.99130726 1.0147412
000020 57 68 88 3f 37 c1 81 3f 71 5b 81 3f 0b f5 7d 3f
       1.0656842 1.013709 1.0106031 0.9920203
000030 a4 c3 80 3f 02 73 7f 3f 64 b4 82 3f 50 88 7f 3f
       1.0059705 0.99784863 1.0211301 0.9981737
000040 ce 54 7b 3f 84 25 7c 3f 0b 44 81 3f 18 47 81 3f
       0.98176277 0.98494744 1.009889 1.0099821
000050 78 30 82 3f 95 ad 81 3f 32 9c 7f 3f 1a 5b 7f 3f
       1.0171041 1.0131098 0.9984771 0.99748385
000060 58 09 81 3f 6b f4 80 3f 0c 92 82 3f a1 c3 79 3f
       1.0080976 1.007459 1.020082 0.9756413
000070 46 af 7f 3f 9c a1 7f 3f 4d 91 80 3f d3 96 7f 3f
       0.9987682 0.9985597 1.0044342 0.99839514

model_8/tf.math.multiply_22/Mul/y f4 [1, 32]
000000 b5 ff a0 3f cb e6 72 3f a0 a2 7d 3f 64 44 86 3f
       1.2578036 0.9488341 0.9907627 1.0489621
000010 30 5a a7 3f 9f b3 88 3f 44 6c a3 3f bc f5 83 3f
       1.3074398 1.0679816 1.2767415 1.0309367
000020 6a 3e 89 3f 78 f2 80 3f f5 13 7c 3f c7 9f 72 3f
       1.0722172 1.0073996 0.9846795 0.9477505
000030 79 1e aa 3f 69 21 b0 3f 92 02 80 3f 60 b8 7c 3f
       1.329055 1.3760196 1.0000784 0.98718834
000040 ed 0e 81 3f 1f 6f 7e 3f 19 0d aa 3f de eb a0 3f
       1.008268 0.9938831 1.3285247 1.2571981
000050 a5 a1 80 3f 4b 0c 73 3f 45 79 82 3f 02 7a 87 3f
       1.004933 0.9494063 1.0193259 1.0584109
000060 37 e5 81 3f 7d 98 7f 3f 86 7c 7e 3f 51 94 9d 3f
       1.0148076 0.99842054 0.9940876 1.2310888
000070 fe 85 86 3f ad b2 87 3f ca 0e 89 3f 46 f0 8a 3f
       1.0509641 1.0601403 1.0707638 1.0854576
